data/weights/mf_layer_0_weights.npz (npz, 1002 bytes, 2 tensors)

W f8 [16, 2]
00000000: fac3 0f9d 89aa a6bf 37f4 3e11 d992 a6bf
00000010: 340f f701 0ebf 7ebf a3ec ca3b a941 a0bf
00000020: 0775 6c54 ab1d aa3f cd6f e2ab 64cd 67bf
00000030: da8f 4efa c298 b5bf 6d21 d7c9 2a74 a03f
00000040: 80e4 3fe4 3fa7 8abf b069 e98d 520a b5bf
00000050: edfb 6cd5 b6b7 9bbf 5a8b f454 b843 873f
00000060: ad31 af25 fe08 b0bf 2d27 cf2e 8ab9 b53f
00000070: ec15 31e6 a6f6 b63f 64a5 297c b88b a8bf
00000080: 3a3c 555e 87c0 9cbf a29e 0a79 b5eb b33f
00000090: 28c1 7e2c 89ef b1bf dd87 a234 44e5 b13f
000000a0: c0b6 4768 0114 a33f 6753 a21e 5d9a 69bf
000000b0: d3e5 3497 bbfd b2bf 00c0 eaae 426d 63bf
000000c0: 585f 877a f4af b13f 0f9e 8a4f 761c b9bf
000000d0: 4c65 96f4 12a9 b53f 2017 7180 57b3 b03f
000000e0: 17fa 37a0 b47c b83f f077 73c9 fb74 a03f
000000f0: e8f1 251b 131e b9bf 3f28 f182 3002 b73f
-0.044269848272854476 -0.04408911071320925 -0.007506422727093388 -0.031750954197798074 0.051007608466742176 -0.0029055563200710345 -0.08436220751769899 0.03213628496047503
-0.013014315751194383 -0.08218875851290508 -0.027068001533958542 0.011359634487751503 -0.06263721866634482 0.0848623623161557 0.08970111007609888 -0.04794098392160143
-0.02807818902266155 0.07781538205255825 -0.07006127678210261 0.06990457806617152 0.03726200483275255 -0.0031253641837544646 -0.07418415490692291 -0.002371435395012611
0.06909111014772173 -0.09809054796152615 0.08461111518262959 0.0652365387514604 0.09565285598362326 0.032142513600532996 -0.09811515248106384 0.0898771590883891

V f8 [2, 16]
00000000: 7d10 7dcd 6e9e c4bf 9d58 fdc7 bf66 bc3f
00000010: 77ac 97cd 232e cc3f e20e ab84 39ec e1bf
00000020: ff77 171a 91ad b83f d7ce 679e 47b6 c4bf
00000030: a2d6 d3f7 b4e0 e1bf d659 0b4c 02d3 e33f
00000040: bf45 f478 0af0 ddbf c871 15bd b54b e2bf
00000050: 940f a040 eaf0 c83f c635 a6c6 7bb5 d6bf
00000060: 7d48 53fa 0e84 e63f 5a30 0f75 d9c2 cc3f
00000070: 1e4e 9dc8 8c3f da3f 94ed 1386 0673 e7bf
00000080: c563 9b70 d8c7 c5bf 9dd3 0f94 87fc c9bf
00000090: a2e1 86e8 a7e7 c5bf bfb4 9d57 9406 dc3f
000000a0: a5b6 014a 92d5 debf d9d5 6c31 383a be3f
000000b0: 85e5 0127 713f e73f 82cc 0710 73d4 e2bf
000000c0: 2e2c f4de 6e58 e43f fb01 963f 53c0 e33f
000000d0: 9641 2578 c4e1 c4bf 5850 596d aaa5 c23f
000000e0: 1d93 cb8f 93a8 e7bf 2a8e f33a 615d d03f
000000f0: ce05 0ac9 0e10 993f ca2d aad6 8083 eb3f
-0.16108498605365532 0.11094282753524216 0.220158076655341 -0.560086020581789 0.09639841925624636 -0.1618127368416171 -0.5586800423031557 0.6195079312554366
-0.46777593433315795 -0.5717419331590969 0.19485214381722626 -0.3548268737730179 0.7036204232374669 0.22469633308208153 0.4101287802816119 -0.7327911966998948
-0.1701612996901344 -0.20301909188824832 -0.17113207677699643 0.43790157848600225 -0.48178536631790286 0.11807585913341913 0.7264943849433371 -0.5884337723822599
0.6357950548712148 0.6172271959222252 -0.16313987604600005 0.14568071688938988 -0.7393281754017128 0.2556994510361813 0.02447531797452545 0.8598026459380261
