data/weights/mf_layer_1_weights.npz (npz, 8682 bytes, 2 tensors)

W f8 [32, 16]
00000000: d2bc eb03 0fcf b53f 30f0 5b62 9d77 a0bf
00000010: dacf ce0d 3fa6 adbf 87b3 7576 12e6 ac3f
00000020: 9a91 c24f 06b4 893f 5882 9218 d75c b6bf
00000030: f275 380e 37c9 b7bf c7da c9be db7e b13f
00000040: 9a59 0fa0 96fc 0a3f 4d21 9b23 e023 943f
00000050: 850e d414 465e b73f 32a3 a2a0 5f04 b13f
00000060: 0090 204f 2d46 633f cd70 8805 1c61 9f3f
00000070: 3aa9 eeb8 13d7 a63f 9831 0a2c 4ac1 b0bf
00000080: 0d80 9b33 3dea 9bbf 7d1c 05f0 515e ae3f
00000090: 8d7e 0906 e47c a0bf d309 bad3 eaab a2bf
000000a0: 3a1e 6614 bde8 b6bf d43d baca 5090 973f
000000b0: a074 3de2 dd64 a63f c089 f199 0428 b7bf
000000c0: 0483 5ee0 4798 a83f d428 2f5e 9c66 9ebf
000000d0: f709 549d 144d a03f bade 4058 b278 a6bf
000000e0: cd9e 2fcd 1d72 a4bf 5ab4 8085 f76f acbf
000000f0: 2255 7670 2db9 b83f 6764 e5c3 4b42 53bf
00000100: ba96 f49c adf7 a83f f557 e470 e41c b4bf
00000110: 5aee c071 6e6f 9fbf 4dda 661b f23e b93f
00000120: 05b0 759c 1098 b73f c298 ffb9 8fc8 b73f
00000130: 6b7e 4ec9 e9a7 b0bf e4d2 0c39 7315 a53f
00000140: 0743 9505 488e a8bf fa72 fcdf 0e5c a4bf
00000150: b0a4 be1a 55bc b53f dd94 1909 cd98 b73f
00000160: 3363 d5da f2bf 90bf bb81 4119 6b07 b23f
00000170: 4001 3fae c249 8b3f 570c 1e1e 5e43 b5bf
00000180: 48a3 b14b 2775 b4bf 9709 a4b0 173e a5bf
00000190: 3499 fb10 39fa 883f 0030 fa95 fb8b 40bf
000001a0: fa3c 44be 2fe9 9bbf c0f6 8715 bf8a 85bf
000001b0: 44ba c1a3 65f4 b53f 7d7b 70e0 7415 af3f
000001c0: 902e 3961 70f0 a13f 00d0 d05a ced8 93bf
000001d0: 7d41 49ee 90b0 a73f 2747 b41d 3d05 afbf
000001e0: da24 7720 8d93 9dbf 6f42 ed7f 75f9 b2bf
000001f0: a274 3c8c 1a79 b0bf 0d11 b676 2196 a3bf
00000200: a2bc e933 14f5 b5bf 9c75 18dc 9d48 b73f
00000210: 5384 cec8 f703 a0bf 846d aca2 a5e2 b83f
00000220: 6d44 0068 ffb9 a0bf 1023 0982 1614 af3f
00000230: 1a1e 4a7a 8814 b0bf d0ab c0c2 f945 a9bf
00000240: 37ee cb74 a135 b9bf 8d74 9d0f 8d24 9ebf
00000250: f0a9 d417 a851 a13f 2088 23f7 fde9 96bf
00000260: c7c2 9b8e fd5f a7bf b7a5 f7e7 de39 b23f
00000270: 54fc 0a6d a079 98bf 0d0a 7024 03ea 833f
00000280: 006c 7a62 04c0 74bf b427 3750 bd5c 9abf
00000290: 4db8 601c d8a5 af3f 9b6a 4953 00e9 b13f
000002a0: 9a5d 8e70 b925 ab3f faa9 721f 004f 91bf
000002b0: e0d0 e9e0 2b86 a93f e867 c529 b97c b0bf
000002c0: 05cb aedd b2fb b4bf 6748 984b 25ad 5d3f
000002d0: 1a95 7fa4 5307 9fbf 5cbd 83fe 62cf b73f
000002e0: bd07 0099 5f2e a8bf 4050 cdc3 9f2e 99bf
000002f0: fcdc cd60 eedf b4bf e7f2 5c1c 342e 72bf
00000300: 77d2 f93c df22 a1bf b463 57eb 870f 7abf
00000310: 133c bb87 d227 a13f 9a79 24be 1e62 573f
00000320: 776c 6769 bf1d abbf b0ba 37d0 bf11 a7bf
00000330: e800 058e 8496 b33f cd1c 0168 1a03 743f
00000340: 0037 3a69 4677 7a3f c040 e46c 6334 823f
00000350: 7760 f026 70bd b4bf bd17 9919 a2a9 a33f
00000360: dd1b 9812 9e3c b43f 8de0 aa15 1a50 a23f
00000370: 1d89 50e4 14e7 aa3f 3a67 f111 a0f6 b23f
00000380: 70c8 8c0a 9f26 a3bf 07da f96e 7431 b7bf
00000390: 4553 44fa e1e0 b7bf 8d2c 6af6 50c1 b13f
000003a0: cd4a 2af8 9179 9e3f a2b5 79e0 7dec b4bf
000003b0: d70f 9f24 5cbd b33f c0a6 669e f515 a03f
000003c0: e0e1 9743 5e0a 94bf 1a3b 9669 1891 9b3f
000003d0: 0042 9423 6436 913f db1c 3eff d498 b0bf
000003e0: 707d da3e a4ae a43f 82ed f4be 5ebb b53f
000003f0: e7b7 57cc 40ca 7a3f 67c6 3137 873f 39bf
00000400: 4028 ddfb e278 a5bf 1a28 72a9 482d 9d3f
00000410: 2002 4674 146b 953f 1d90 9418 8d9f a7bf
00000420: 3804 f354 2eff b4bf 7f9a b571 bfa9 b4bf
00000430: dacf b0d6 d0a5 86bf e813 5beb eead b53f
00000440: 1439 bd9e f9f3 9bbf cdec ced5 0e0d 37bf
00000450: 1f19 fd31 ab82 b73f 5a01 cf4b c421 abbf
00000460: 8dcc e856 2432 b03f b888 323d eb7f b83f
00000470: 07e7 040d a62e b03f 24a8 4282 4e2d b93f
00000480: 17a8 7c8c e2c1 a6bf f792 e44f bdbd b63f
00000490: bd15 dfc4 5677 b23f ca74 a9e4 959e b6bf
000004a0: 0025 3a33 bbb0 6ebf c0a6 a1ad f081 b4bf
000004b0: a71b f96c ab76 99bf 80e4 ae73 4647 85bf
000004c0: a75a 3bff e7d5 a73f c37d ff17 bdb4 a03f
000004d0: 250a 974d 379d b6bf 7a91 711b 4aec a5bf
000004e0: 78e2 6f8d 602b b93f d35d 0b52 88e7 b13f
000004f0: cd18 2bf2 01b3 6fbf 5017 1fa0 bca1 b63f
00000500: 4055 a554 2e9d 833f e229 f9b0 d83a b0bf
00000510: 371d ed03 7698 afbf 1d18 a87c 8c2a aabf
00000520: f52a 8485 d1e6 b03f c4fe d947 28a7 b73f
00000530: 1417 764c 20bb 983f b4fe da0f f43c b53f
00000540: 40b4 eb35 d6b2 b13f ba2a c61e 641c 963f
00000550: aa4c 5869 74b7 b4bf 2777 3a49 01b9 893f
00000560: d7c5 588b 7abb b43f edd6 e2bd 142b aa3f
00000570: b09a 060e 7ade a93f 077a abe3 3dd9 abbf
00000580: 8a86 0e3c c48e b03f 1aa1 e3bb bf2c 94bf
00000590: 67f1 3fc5 0758 973f 9da6 3697 740e a33f
000005a0: 400f 26b2 00c4 833f 5ab9 7892 22a5 80bf
000005b0: a54a c6ed ccbf b33f aaab e09a 80c2 afbf
000005c0: 8db7 ee24 ba6d aa3f d219 9098 0b06 b8bf
000005d0: 4020 e974 34b3 92bf adc0 99ce 538b a13f
000005e0: 6f6c f991 6baf b7bf 35c4 6902 cbeb b5bf
000005f0: 2dc6 4d40 f945 adbf 772b 6be7 f3c5 ae3f
00000600: a0c7 ba57 e0fa 9ebf 6712 8d8b 715f b73f
00000610: e0b5 cc2e a434 b23f aa64 8e82 b485 a83f
00000620: 8077 701f 778a 8f3f 0dec 8076 4da4 8cbf
00000630: e738 dd8c 6273 9cbf 7ddd 561a a99f b33f
00000640: aa5a 8a63 ddad b3bf b79d e9f0 5392 b6bf
00000650: 7778 eb2d 9a54 ad3f 344b 9d64 089e a33f
00000660: 570b cd39 2d22 b7bf ac6a b499 ef3e b6bf
00000670: 424b 384b 7f99 b23f ca1a 4332 b43f b73f
00000680: ec05 704d 584f b53f 4240 2823 75eb b0bf
00000690: 206c 0b67 e7df 973f ba6e 4e6c a807 9d3f
000006a0: ba03 54b1 f934 a53f ad70 347e 40d4 b2bf
000006b0: f7e1 c9f6 0385 b03f 7ae1 c84e 67bc 9abf
000006c0: 00a1 b273 85db 66bf b471 7616 1835 9ebf
000006d0: 4a57 0318 8188 a2bf 0db5 39f5 7dd8 8ebf
000006e0: cff7 f4cb 8222 b93f e7b0 38e0 f49e 913f
000006f0: 44ab 2188 23ba a93f 8ae1 4490 6497 ac3f
00000700: d7d7 b5c6 e4e4 a3bf c01a b37a e63b 853f
00000710: 5a96 79a5 be68 883f 4d7d 72a1 4d79 a9bf
00000720: cdc4 dea2 4f73 4d3f ddb4 9907 aabc b03f
00000730: 1544 dc76 075c b6bf 9807 bfbe 2ada b73f
00000740: c098 2c24 107b a93f 04b6 cc7a c7c8 a53f
00000750: 70ba 6545 cb0b af3f 30ce b057 a9c8 b73f
00000760: 987a 8160 4b10 b53f 6766 0eea d96d ecbe
00000770: b0b0 b33a c305 a9bf a747 5141 2f62 8dbf
00000780: b4e1 b517 b5cf 78bf b084 40c5 67a8 a33f
00000790: 77fe 03b7 bafe a3bf 57ba 9ccb 5ba5 a0bf
000007a0: 245e f576 c130 ab3f cd88 05be e928 a73f
000007b0: 2a83 2659 fe69 a03f 2f55 bebf ca8e b8bf
000007c0: fff9 af3c a942 b83f 2469 52bb 3a04 a83f
000007d0: 5af3 16ce 952f b73f f73b 28b3 f3c4 ae3f
000007e0: cdff 460a e9a5 b8bf 0848 2111 81a1 b23f
000007f0: c018 2d5e 86ac 80bf 248a 2464 d1ad a8bf
0.08519071431850314 -0.032162588364343825 -0.05790898364594428 0.0564428109745228 0.012550401028712344 -0.08735412931356146 -0.09291404816800489 0.0683419552604888
5.147299453482912e-05 0.019668104336944926 0.09128225334648661 0.06647298499832457 0.0023527989333320676 0.030643880689340364 0.04460965759729381 -0.06544936728659534
-0.027260738634936433 0.059313355016052484 -0.03220284055418885 -0.036467874856515835 -0.08948880908985127 0.02301145779943943 0.04373830210418217 -0.09045437582384519
0.0480368100536506 -0.02968830418448294 0.03183807774077601 -0.0438895924311828 -0.03993313913070793 -0.05554173950836434 0.09657558437023231 -0.0011754741568295258
0.048764634523008124 -0.07856586223746816 -0.030698514645548826 0.09861672562588204 0.09216407604043304 0.09290407458283581 -0.06506215252601925 0.041179276193735764
-0.04796052044060244 -0.03976484760480577 0.08490497496554172 0.09217530700842098 -0.016357225996532065 0.07042569510077261 0.013324280684060441 -0.08305919871604438
-0.07991262052531767 -0.04148935347804466 0.012196012335561869 -0.0005049684950377831 -0.027256723392437877 -0.01051854404885988 0.08576045272796146 0.060710575482736374
0.03503752886589695 -0.01938173703474888 0.04626896771208331 -0.06058684337234715 -0.028883175951510555 -0.07411894200527923 -0.06434789584860082 -0.038254781476128576
-0.08577085750015326 0.09095179198671705 -0.031280272734200885 0.09720835896989938 -0.03266904968780513 0.060700133679864376 -0.06281331048568753 -0.04936199667311991
-0.09847458936194974 -0.02943630607420693 0.03382611552145309 -0.022376983842043896 -0.04565422406984037 0.07119553721681525 -0.02390146890206453 0.009723686742295201
-0.005065934302957764 -0.025744398137056826 0.06181216570290413 0.06996156724327778 0.05302218913055441 -0.016902925414493432 0.04985177155040943 -0.06440312642862944
-0.08196561729600312 0.0018113006793823107 -0.03030138675230374 0.09300821984992552 -0.047228801180622317 -0.02459191925602533 -0.08154191840536734 -0.004438594396387364
-0.03346917743048022 -0.006362467703603981 0.03350694567563308 0.001427202245913506 -0.05296133195562274 -0.04505729119033697 0.07651546923898744 0.004885771893959401
0.006461405795233466 0.008888985405548389 -0.08101559591921324 0.038403573632009615 0.07904994920691828 0.03576737894530977 0.05254426276248323 0.07407570303021496
-0.03740403178962104 -0.09059837064146602 -0.09327518806487685 0.06935602203354758 0.02976062848262977 -0.08173357706410525 0.07710815328670094 0.03141753729444252
-0.019570801616255795 0.026920682377347217 0.01680904833944119 -0.0648320315504977 0.04039490954641678 0.08489029085187919 0.006540539854070083 -0.00038525630151928784
-0.04193791698942606 0.028493056623609993 0.020916289898652463 -0.04613915371945174 -0.08201875280339344 -0.08071514631374475 -0.011058455993499128 0.08468526121130504
-0.027297878564518888 -0.000351730462906108 0.09183759661127454 -0.05299199510000348 0.06326510545550175 0.09570188755108944 0.06321180169916484 0.09834757499871266
-0.044447974824223184 0.08883269501218281 0.07213346773558889 -0.08835732300345281 -0.0037463814022130615 -0.08010772933053101 -0.024866751218975882 -0.010389852910394959
0.046553850084526 0.03262892644829265 -0.08833642620360445 -0.04281837067609025 0.09831813290646518 0.0699391556075775 -0.003869537163470138 0.08840540799346042
0.009577142675576966 -0.06339792557370275 -0.06171006009986473 -0.05110587140738707 0.06602200994181458 0.09239436868846967 0.0241513296764629 0.08296132456870958
0.06913508240150268 0.02159267843084465 -0.08092429706475693 0.012559900328877284 0.08098569776554797 0.051109932116942015 0.05052548810208657 -0.054391798059203515
0.0646784445403005 -0.019701953738065027 0.022796746648951507 0.03721966119640039 0.009651189266839943 -0.008127470107038338 0.07714539341967937 -0.06203081026645603
0.05161840153537787 -0.09384224390678433 -0.01826173747602433 0.03426610848407683 -0.09252044977022121 -0.0856291657344322 -0.05717448148687896 0.06010400962767098
-0.030253892283048978 0.09130010277756072 0.07111574308938584 0.04789508908943081 0.015400820395423898 -0.01398525731939595 -0.02778390869871652 0.0766549767785047
-0.07687171631037396 -0.08817028648046842 0.0572860890440418 0.038315069467577706 -0.09036524449497328 -0.08689782621915282 0.07265468202994632 0.09081579424956057
0.08324195757452174 -0.06609279735880683 0.023315063156456373 0.02834952508020081 0.0414197949376169 -0.07355120736287075 0.06452965521919639 -0.026109327491413016
-0.0027902227862633966 -0.0294994128904464 -0.036197694951325035 -0.01506136326426113 0.09818284491936356 0.01720793360270614 0.05024825131189073 0.05584253560158732
-0.038855695015555795 0.010368157023902369 0.011918534684080818 -0.049753595312035694 0.0008987559174241877 0.06537878690297157 -0.08734175350061009 0.09317271382226833
0.04976702157573376 0.0425474488641662 0.06063685629020632 0.09290560141453663 0.0822798834428603 -1.3556054286034681e-05 -0.04887209025932415 -0.014347428494293114
-0.006057460206072941 0.03839420588361386 -0.03905280574872177 -0.032511585812575454 0.05310635163430913 0.045234016843794224 0.03205866659414476 -0.09592883282887919
0.0947671673929804 0.04690726791996472 0.09056984216199507 0.06009637414910423 -0.09628159047042502 0.0727768580266287 -0.0081415650835307 -0.04820112559743375

V f8 [16, 32]
00000000: 27f1 4b18 ea67 b4bf 8ea2 26cb e427 b4bf
00000010: 09ca a9bd 0f0e a13f 8502 33a4 ac90 b6bf
00000020: ce21 eaa4 ddb4 aabf 7d3f 0d28 4146 acbf
00000030: 1e55 fd7c 6732 753f da69 2682 3e72 b73f
00000040: 0464 21df 8183 b83f 5549 86c5 010e 983f
00000050: ef35 d4d5 1d45 afbf e1e8 48ac 2c84 a63f
00000060: 2f7f 986d d3ab a0bf c7b2 c470 0419 babf
00000070: e207 e206 a6c0 8b3f 5387 2207 67fd 77bf
00000080: f6e5 b79f 0c77 b73f e0c1 4a38 f801 a9bf
00000090: 6681 043f c8f5 a83f 84ea 7cf0 37c8 b0bf
000000a0: 273d d78f 6c13 b9bf 7b5c 730b 387d b53f
000000b0: 0e61 4dbe 8c84 81bf 6899 5c77 daee adbf
000000c0: 4948 c395 0eb5 b7bf 544b c988 9cb2 b83f
000000d0: 8dc2 a9e7 28f6 833f c03c 83d6 ea0a b83f
000000e0: be58 87f6 fcfe a93f ab41 38f0 954e b5bf
000000f0: 18e5 7b87 7f72 a4bf 1086 a945 30ed b3bf
00000100: 7e83 9a97 4be7 b03f 8ec0 d82c 8bf6 8f3f
00000110: aed2 14a3 53db a8bf 0d3e 5e35 1db0 9ebf
00000120: ae75 7e52 6af2 b23f 7d11 2659 808b b2bf
00000130: b536 0c2a 142f b23f 67d1 9ebd 51c8 adbf
00000140: e92b 0138 0286 b1bf 38cb e065 6a28 9cbf
00000150: 3f71 309b 9619 b8bf b151 0245 0953 a5bf
00000160: 06ec 01dd 4f54 7a3f e8b2 9c9e 0df6 b1bf
00000170: b079 3912 c5a4 a4bf 8bbb 8cb2 c4c7 ab3f
00000180: 4f8c 323c f1cb a5bf 5b3c b1a5 637a 90bf
00000190: c39c 2eb8 533c a5bf 1233 f8d1 1517 a23f
000001a0: dd50 8865 08be b1bf 0181 3558 e22a a8bf
000001b0: 2871 d219 3c2b 823f 5ddb a760 05a4 ab3f
000001c0: afaf e99c 926e b03f becd 9fc9 2456 b1bf
000001d0: c199 7326 5d80 b83f b08e 472f f7f7 aabf
000001e0: 5e1e ff4b 46f1 9abf b1fd fc29 0c2b b53f
000001f0: 9932 bb74 f790 8bbf 8bf5 9090 30f0 773f
00000200: 2cd8 4f4f 1279 9c3f 920c 486a 5997 763f
00000210: 73ab 4188 0752 8c3f 7598 e590 bf16 a6bf
00000220: 3c27 1bff 4e3b 6cbf 2cef b718 c829 a13f
00000230: 5559 1e9e 3e9b ad3f 4366 8727 5355 ab3f
00000240: 93e7 1c88 1545 b8bf 4c42 60b5 8de1 61bf
00000250: c736 6142 fc45 a03f 5649 43cc 21e3 a23f
00000260: ede6 c465 4a4f babf de54 db36 fcdb b1bf
00000270: d4ea 2910 b32f 7fbf e472 b5ba c1d7 3cbf
00000280: fc4e 49f7 e205 a2bf c27f d895 22ac 9a3f
00000290: ebd7 3d81 97dc a83f 7229 2d61 cb82 a53f
000002a0: b592 7bfe f6bc bebf efde c1ac f444 bdbf
000002b0: f302 22f2 21d8 b33f c979 3be5 e6d3 6c3f
000002c0: 8f90 0e6f e66b b6bf f556 a611 05e8 ba3f
000002d0: e1e6 9b6d dacb 9dbf 21a7 802f 47a4 a6bf
000002e0: 0819 51de e0df abbf 5ae2 c8ad 4f85 b43f
000002f0: 951f db4d dfa0 b73f 275f 93d8 ea99 af3f
00000300: fdb7 f1a3 d607 b7bf 4297 a80c e1e3 95bf
00000310: 469c 8a3d e0a5 a1bf c2e7 9fe3 d5c1 b4bf
00000320: 356e 9b05 40a0 603f 45fa 4512 d209 8dbf
00000330: ac7a f16d 0fcb a93f 6e28 363d a32f 9cbf
00000340: 547a 3c36 a4eb b43f b4e1 a9a8 8dd9 94bf
00000350: 5f98 009d 2dbf bc3f 0abb 1870 b5a8 af3f
00000360: 3468 d66e 043a adbf 13c6 bc4d 451c a6bf
00000370: 52ce 54cd 0ec4 a43f 1e71 d6ab bc02 b7bf
00000380: 7060 9337 b906 b53f 5355 500d a490 a03f
00000390: aaa8 e76b a91d 58bf 9a75 e73b 111c 60bf
000003a0: 3fca 9e1e b4ac 933f 0254 4aec 368b c13f
000003b0: 5135 afdd 3dd7 a13f 0426 2870 431e 9f3f
000003c0: c6fa f3aa 96ef ad3f 3037 55e2 a1ec a0bf
000003d0: 85ce 0e24 b555 9e3f b3cf 3f86 77ce bcbf
000003e0: ec1a 5340 a99d a4bf 2a0c f405 7a20 a7bf
000003f0: f1dc ae70 81ce 6cbf 7d75 39ee 3ee9 b33f
00000400: c029 ad99 787c b6bf 802a 3b3d 67b5 a33f
00000410: 8460 bb4e dea5 a23f 0427 766f df09 b6bf
00000420: 58f0 ec4c 6a69 bd3f 602b 2b99 185b b13f
00000430: edd5 d10f 563c 84bf 5185 336a ca08 aebf
00000440: fe8e 23ed b97c b23f bfb7 e1e5 782b 6fbf
00000450: 77fe eccb 1bb4 a6bf 0518 70fa ce27 8e3f
00000460: 42f7 39e1 6fc4 89bf b7ea ad25 4848 9d3f
00000470: ed8d 375e 04f8 a33f 5242 9734 8eab 9a3f
00000480: 4e5f 97ff ab89 b53f fa92 ad28 ac93 99bf
00000490: 5b97 fd35 e21b b93f 7795 b654 58f1 a9bf
000004a0: b3c8 6190 b246 a5bf 63a9 7eca e671 b2bf
000004b0: f952 8a44 e1e3 ae3f 6ba2 b141 bca1 85bf
000004c0: 73ca f2f7 25ab 803f 1d7a 6ce4 34c9 b73f
000004d0: 9bae fe55 ae62 b43f 4a10 90d5 221c adbf
000004e0: 9456 2e28 6a10 b8bf f66f 916c d325 ac3f
000004f0: 4139 88c2 6c65 983f 2373 2ff5 63dd a63f
00000500: 98bc 45da ee93 793f 6f6d 2e3f aa02 933f
00000510: 0e49 edeb 9808 a3bf e713 5677 1492 80bf
00000520: 06c6 de29 7e86 b63f 2824 884b 4916 a53f
00000530: 59fc a86d 5575 b2bf 33f1 40a7 6153 ac3f
00000540: 21f0 f9b9 a057 9ebf a462 b986 adcd b3bf
00000550: 287b 3f74 37db 9abf 6f52 11d1 128a b13f
00000560: 79ee 0981 ee70 b33f 8548 3b0a 32ea b53f
00000570: 24c0 75a8 6c89 923f f80d 00c5 ab04 b53f
00000580: 5ee4 e2cb dda2 a33f 8d3b b777 1703 b4bf
00000590: db6a 841d 9419 b53f 1d86 4074 6bca babf
000005a0: 7bb2 1d6e fc1f a5bf 3a49 a078 d5a7 a83f
000005b0: 5950 230b 6ceb 8c3f e7d1 4f4a 06ba ae3f
000005c0: cadc 174d ad8f b0bf d55c 23a8 91cf a23f
000005d0: 8cb3 a5c2 8fc2 a2bf d12d a3d3 ece9 703f
000005e0: 7ab4 cd9b c5d4 983f f1ef 2424 5815 983f
000005f0: 4f11 43c1 f87f b6bf b31b e090 db95 a63f
00000600: 008e 304a 3c08 8a3f 5510 15cd 377c b23f
00000610: bd11 8d02 e76c b43f 13c8 ac6c 3b72 833f
00000620: 8d4e 3c5f f169 a3bf f5ea fc7e 0fac aebf
00000630: e364 71a5 eea5 9f3f 3a8f e950 8587 4f3f
00000640: ec50 7fdd 5830 74bf 2da2 289a c8f8 acbf
00000650: dba5 c58b e9f9 b43f 6b15 ad16 acfe ba3f
00000660: 3e65 752a 9d06 a93f 7f37 f185 cfb5 8abf
00000670: 810b fbca 5000 afbf af07 fbe7 f9ed a03f
00000680: 476d f801 fdd0 afbf 3276 f6a6 f9c0 b5bf
00000690: d854 9e63 5343 b9bf ddd7 86c7 2d6b b3bf
000006a0: 000a 0103 a0b0 c03f 0acd bf30 2735 c03f
000006b0: 28b2 605f 6c6d a1bf 8594 f328 48a8 bd3f
000006c0: 5837 34cb a1a6 b03f f200 d6e0 f51f 7dbf
000006d0: 6f86 7331 2e17 ac3f 2e88 39f1 d163 77bf
000006e0: 8cbd 9922 22b1 b33f 2ecc 7cf3 a985 b5bf
000006f0: ff76 6c9b ecaa bbbf 9975 a049 c828 a53f
00000700: 8fc8 7104 9da3 b83f c2f4 09c1 a94d b33f
00000710: c125 fe5e 387f b13f 1cc9 e014 ad82 a33f
00000720: b6de 5edb d4e5 b83f 6bca ed4b afbb b73f
00000730: dea9 a659 ef95 afbf 57ef 7686 f08f bd3f
00000740: bbf6 1adc 2195 b43f ac42 f4df 7232 b7bf
00000750: 6436 fb1a 0199 bdbf b56c 00f1 95de 6f3f
00000760: 141a 4319 29e4 aabf 2031 32cc 05e7 b4bf
00000770: 2288 3956 a288 8e3f 337f a744 15fc 93bf
00000780: eb28 20df eb2a 843f 0bd3 08ef 4a77 a23f
00000790: 4d22 fcab 9b9b ac3f 82ba 4434 d71f ba3f
000007a0: 7482 5a1d dae1 85bf 7817 85a4 9ebb 973f
000007b0: c5a6 b263 d91a b3bf 1ebe 45d6 d0a5 9dbf
000007c0: bf58 d906 00f4 7d3f 966f 0653 2c3d 9a3f
000007d0: 8794 953f 0bce 7f3f e699 9306 d54a c13f
000007e0: 3422 e0d5 160c a7bf def0 e32e 82a7 ac3f
000007f0: e867 78e3 6c27 b03f 84af eb21 20b7 ae3f
-0.07971060841731924 -0.07873372993220526 0.03331040563798033 -0.08814505585452011 -0.05216114652745639 -0.05522349943078007 0.005175022364558827 0.09158697774402161
0.09575664231796571 0.023490932160322348 -0.061074192382971286 0.0439771614369009 -0.032560927513485154 -0.1019442344010698 0.013551041684198798 -0.005856897785777654
0.09166029834150166 -0.048843151923737116 0.04875016946084791 -0.06555509206092763 -0.0979526377843639 0.08394193915897745 -0.008553599889339594 -0.058462931700250576
-0.09260646015471354 0.09647539462575355 0.009746856279180061 0.09391658532261982 0.0507735300958969 -0.08323037256946601 -0.03993605164391506 -0.07783796025025702
0.06602928591975218 0.015606963449585256 -0.048548329980268576 -0.029968696958858888 0.07401146425259839 -0.07244112183076896 0.07103086496882834 -0.05816893996908128
-0.06845105998324609 -0.027497923343797498 -0.09414044655608665 -0.04164914100070705 0.00642806240659422 -0.07016072389951555 -0.04031959388224793 0.054258486552831796
-0.0425715814574451 -0.01609187792592724 -0.04147588370624924 0.035332376366659216 -0.06930592039890678 -0.047202180164051206 0.008871526277567002 0.05398575596694031
0.06418720560912904 -0.06772069857088689 0.0957086771846667 -0.05267307712690916 -0.02631101454588102 0.08268810296157515 -0.013460095643858682 0.005844297128587593
0.027805601206601846 0.005515431669212438 0.013828333707541529 -0.043142305791477854 -0.003446249284796558 0.03352189351787013 0.05782504730375374 0.053385351729684526
-0.09480413983410889 -0.0021827476257459174 0.03178394613551699 0.03688912981455654 -0.10277237877462726 -0.0697629579475065 -0.007613849130047885 -0.0004401061985015843
-0.03520116108543722 0.026047268291335753 0.04855798199325519 0.04201350747333067 -0.12007087433773729 -0.1143334314127704 0.07751667176672665 0.003519011466649878
-0.08758392535543379 0.10510284119512987 -0.029097950878145155 -0.044222092198039194 -0.05444243158176404 0.08015916817465421 0.09229846621303602 0.06172117131944637
-0.08996335508865623 -0.021377102277390543 -0.03446865798223846 -0.0810826950763888 0.0020295381953994393 -0.014178887541445149 0.050377351923761665 -0.027525473223740375
0.0817206032192897 -0.020361150187882607 0.11229214747490478 0.0618340205513644 -0.05708326199528849 -0.043184438456943884 0.04055830246434468 -0.08988551326041658
0.08213384253338218 0.03235352194330212 -0.0014719156748648579 -0.001966508541257195 0.01921349942103689 0.13706099069227667 0.03484528857334602 0.030388883324155472
0.058468540542880684 -0.03305536163189371 0.029623823476596662 -0.11252543475694558 -0.04026535902226222 -0.04516965220138787 -0.003516438305691254 0.07777779880549036
-0.08783677818170244 0.0384933721776024 0.03642172537883062 -0.08608814688900784 0.11488975885453223 0.06779626597851296 -0.009880707128313094 -0.05866081758882536
0.07221567191623632 -0.0038049088753302203 -0.044342869418412194 0.01472436620498386 -0.012581705151429316 0.028596045779958525 0.03900159502134302 0.026045057258502098
0.08413195600530551 -0.02497738836554484 0.09808172052507073 -0.05066944154831792 -0.04155500423884586 -0.07205049937934897 0.06033233606027539 -0.010562392000978712
0.008138939503941267 0.09291391922713683 0.0796307525585526 -0.056855286187812284 -0.09400046807271628 0.05497608852667206 0.02382440507249695 0.04465782516465413
0.006244595544884345 0.018564853769573227 -0.03717496757475845 -0.008091125385144294 0.08798969766828443 0.041185656042280805 -0.0721028702473502 0.05532365004225639
-0.029631148673146982 -0.07735714472927185 -0.02622687003156013 0.06851308445158975 0.07594195032464225 0.08560478925508803 0.01810235765645997 0.08210252341819302
0.038351946962799074 -0.07817217514751303 0.08242154808651085 -0.10465118015465476 -0.04125965923490057 0.0481554708241156 0.014120906915572261 0.060013004847778544
-0.06469233638914598 0.03673987557857009 -0.03664063693108863 0.004129338363962857 0.02424916041802703 0.02351892204863754 -0.08789019316015366 0.04411207335947811
0.012711020483101798 0.07220791584865201 0.07978671848565617 0.00949522424125252 -0.03791765487235663 -0.059906467677555066 0.030906418655239142 0.0009622002560942596
-0.004928919915944113 -0.056585568254665077 0.08193835890201433 0.1054484897004692 0.04887858527463117 -0.01304208877095525 -0.060549282815848045 0.03306561428827536
-0.06214132927945087 -0.08497581793059153 -0.09868355924693917 -0.07585416909463967 0.13039016863520203 0.12662210350354314 -0.03403795875815191 0.11584902763168443
0.06504260264429484 -0.00711055799672543 0.0548643527379341 -0.00571043022827848 0.07692159027805284 -0.08407079882162868 -0.10807684702418995 0.041326769817014504
0.09624654158122524 0.07540379488814877 0.06834747618827121 0.038106354521362656 0.09725694995619957 0.09270759204609084 -0.06169078797696036 0.11547759325816052
0.08040057777085512 -0.0906135365260165 -0.11561591061328041 0.003890316824266183 -0.05252197678924034 -0.08165012583976194 0.014909046417589226 -0.019516308131527892
0.009847491022828744 0.03606638114835022 0.05587469553399114 0.10204834962926593 -0.010684684773253773 0.023176649848458436 -0.07462843593625752 -0.028952849462653522
0.007312774757869344 0.02562398201699486 0.007764858187646279 0.135096195422377 -0.04501410828385524 0.05596548864738947 0.06310158303713786 0.05999088682241818
