data/weights/sl_weights.npz (npz, 1002 bytes, 2 tensors)

W f8 [1, 32]
000000 d1 3a 35 23 90 11 a1 bf 43 8b f5 a0 62 10 cf 3f
       -0.03333712034019743 0.24268753871282386
000010 93 d1 a0 92 c8 18 ce bf c3 27 27 dd e3 b3 c2 3f
       -0.23513133201198552 0.14611480997547063
000020 de 06 e4 8d 9e 2e f1 3f 09 35 4e 94 30 50 da 3f
       1.0738816778761513 0.41114439471205394
000030 df 58 e1 85 34 bf c1 3f d2 28 1e ff f7 79 d9 3f
       0.13864761864778694 0.39806938089226407
000040 40 b0 9b 7d d0 cc c3 3f 65 28 1b f5 11 41 c4 3f
       0.15468793996058317 0.1582357832724625
000050 33 7d c2 32 17 81 f0 bf e4 b0 c0 9a c5 62 e0 bf
       -1.0315162642289806 -0.5120571157945304
000060 de 08 c6 7f 28 b3 ea bf c3 a5 8d 04 24 48 dc bf
       -0.8343698974206537 -0.4419031185594486
000070 8d a6 0c d1 78 d0 d1 bf f0 be a8 a9 d2 13 dd 3f
       -0.27834911742193286 0.45433489387777026
000080 ba b8 78 ff 97 54 c3 3f 37 94 de 5d c8 59 c9 3f
       0.15101909612844172 0.19805245002240365
000090 c7 e6 b6 52 75 53 bc 3f 5b eb 11 cc f8 aa f2 3f
       0.11064847249408692 1.1667411777004506
0000a0 47 20 e2 1d d8 dd f2 bf a6 81 ff f2 75 c0 f0 bf
       -1.17916118310133 -1.0469874851333798
0000b0 2f 12 fe 93 1b 58 d5 3f 19 d5 d6 af 50 1e e3 bf
       0.33350266888035923 -0.5974505838736689
0000c0 12 d7 16 42 08 2d 99 bf 9b 71 c6 59 12 86 db 3f
       -0.024585846933141538 0.4300580860815672
0000d0 86 89 de b5 75 64 e0 bf c8 af b7 a1 99 68 ec 3f
       -0.512263159955453 0.8877685698075704
0000e0 70 72 af fe 4f d1 e5 bf c4 5d fe 6a fe b5 b6 3f
       -0.681800839836411 0.08871450531147845
0000f0 28 58 56 4b d3 8d fb 3f 8c 37 6e d4 22 ef cf 3f
       1.72212533405901 0.24948535320839615

V f8 [32, 1]
000000 98 f3 3d 08 ed 0f 10 3f 0e 3d e7 15 7b d6 3f 3f
       6.127247075755763e-05 0.0004858065130095159
000010 00 79 53 7d 26 a3 2f bf 72 db 05 d9 5a d3 30 3f
       -0.00024137348979186984 0.00025673835718669554
000020 fe 40 cb 2c 8b 9a 58 3f 2f 4b ea 72 0a 59 47 3f
       0.001501689827978991 0.0007125187892874414
000030 be 2b 1a 40 a8 34 13 3f 6e d0 15 4c 1e dd 47 3f
       7.326390189114817e-05 0.0007282636581025356
000040 7e e7 cb b6 58 ec 2b 3f 57 fb 1a f6 3a 4e 21 3f
       0.00021303732810179146 0.0001320311521819338
000050 66 b3 8e 05 96 61 54 bf fa da 28 18 83 e4 45 bf
       -0.001243969445776838 -0.000668109904217256
000060 cf 2a 2b 8d c4 96 51 bf f8 b0 5b ac be 00 42 bf
       -0.001073543495908314 -0.0005494051954122716
000070 ce 28 83 ea 9e aa 38 bf 27 40 26 fe 63 90 44 3f
       -0.0003763807276412457 0.0006275642629578513
000080 25 72 cc b6 ac d3 ea be ca f5 02 ca f5 e6 16 3f
       -1.279204089992779e-05 8.736491372737031e-05
000090 33 be a0 f4 6b 26 24 3f be ec 38 bc 90 37 5b 3f
       0.0001537329465590584 0.001661197035800296
0000a0 22 e5 58 d3 86 de 57 bf 06 d3 17 db ae da 57 bf
       -0.0014568630844123483 -0.0014559466911780463
0000b0 92 85 a4 7b 63 65 40 3f 8a c6 75 e2 31 b5 42 bf
       0.0005003677136167664 -0.0005709165169902203
0000c0 d5 1a 8d 4f fb 31 1f 3f c5 c4 91 31 db f6 37 3f
       0.00011900040034360942 0.0003656659260463209
0000d0 f6 48 ff a4 fe 69 41 bf 8c 6b bc 31 4a 5c 52 3f
       -0.0005314343816229794 0.0011206364205864376
0000e0 f3 80 8c 0e 9f 48 49 bf 66 3d 7c 82 61 22 07 bf
       -0.0007715965885815287 -4.412517620099969e-05
0000f0 80 dd 62 e2 0c 27 62 3f 8e c6 79 6a 42 6c 3e 3f
       0.0022158862730880524 0.0004642164371722956
